DLnet_video_game.onnx (onnx, 2919 bytes, 5 tensors)

linear1.weight f4 [10, 32]
000000 1e 00 83 3d 67 fa 06 be bb ae 1c be 55 7f c3 be
       0.06396507 -0.13181458 -0.1530103 -0.38183084
000010 bc b0 5c be dc b5 4d bd 67 3f 56 3d 2e 31 c5 3c
       -0.21551794 -0.050222263 0.05230656 0.024071302
000020 24 83 a0 bc 3a 4e 4b bd e1 96 ef 3c 35 64 d4 3d
       -0.019593783 -0.04963515 0.02924675 0.103706755
000030 9a 21 d1 bc d1 c3 c7 bc e6 a3 63 bd a1 fd 2a be
       -0.025528718 -0.024385365 -0.055576228 -0.16698314
000040 4b cc 28 3d a3 51 1e be 5f 8c 65 bd e9 92 9c bd
       0.041210454 -0.1546083 -0.05604207 -0.076452084
000050 ea b5 01 be 2a 99 b1 bd b1 c4 a2 3d ea b2 65 bd
       -0.12667051 -0.08671792 0.07947672 -0.05607883
000060 db 33 b7 3d 4d 32 58 3e 15 f1 e5 bd f7 86 9d bc
       0.089454375 0.21112938 -0.112276234 -0.019229395
000070 e2 3a 3b 3e 15 ec db 3d b8 2c 55 3d d0 82 85 3e
       0.18284181 0.107383884 0.0520446 0.26076365
000080 38 20 23 3c fb 79 42 3c 7a de 81 3d 91 58 7f 3e
       0.009956412 0.011869903 0.06341262 0.24936129
000090 bb f2 d1 3d dd 79 88 bb 1d 3a 26 3c 6e c8 39 be
       0.10251375 -0.004164918 0.010145691 -0.18142864
0000a0 98 58 97 3e 67 07 e3 3d fb c5 69 3d 7d 2c 08 be
       0.2955978 0.11085396 0.057073575 -0.13298221
0000b0 92 5b 00 be e8 b9 2e bd 1b 23 86 bd 29 43 c9 3d
       -0.12534931 -0.042657763 -0.065496646 0.09827263
0000c0 b3 c8 1a bc 29 d9 18 3e a8 f5 67 be 22 6f d5 bc
       -0.0094472645 0.1492659 -0.22652304 -0.026053969
0000d0 42 24 8b 3e 98 ca e5 bd 03 9e 9b bd 30 ce 9b 3d
       0.271761 -0.11220282 -0.07598498 0.076076865
0000e0 7a a0 c6 bc e5 e5 c9 bd c0 7e 9e 3d ad 79 96 bd
       -0.024246443 -0.09858302 0.077390194 -0.073474266
0000f0 8e 16 31 be d8 e0 39 3e 13 0c 11 3a 0b a4 b4 bc
       -0.1729376 0.18152177 0.000553311 -0.022050878
000100 6f 33 9e bc fc 4e d7 bd da 0c 96 bd 80 99 ab bc
       -0.019311635 -0.10513112 -0.0732667 -0.020947218
000110 17 e3 cf 3d 19 37 3f bc 02 9e 01 3d f7 bb 1b 3e
       0.10150736 -0.011670851 0.03164483 0.15208422
000120 57 71 3c 3e 35 00 0f 3e 87 16 aa 3d d0 58 0e 3e
       0.1840261 0.13964923 0.08305078 0.13901067
000130 92 3d 2f bd f9 a0 62 bd 93 cd 21 bd 07 bb 3c bc
       -0.042783327 -0.055329297 -0.03950269 -0.0115192
000140 8a 83 2a 3c f3 4b df 3d 66 7e ee 3c c4 ba b7 3d
       0.010407338 0.10903158 0.029113006 0.089711696
000150 0d 17 09 3e ea 29 ef bd 1d 18 6e 3d 58 39 05 3d
       0.133877 -0.11677916 0.058128465 0.03252539
000160 d6 2b 85 3c 4e 4e 50 bd 6f b6 c4 3d f3 8b 15 bd
       0.016256254 -0.050855927 0.09605109 -0.03651042
000170 d2 9e ab 3c 30 d2 45 bd 47 bf 14 ba 29 47 59 bd
       0.020949755 -0.048296154 -0.00056742545 -0.05304638
000180 73 6d 6a 3d 6b 8a 21 be af 27 7c bd b1 1d f8 3c
       0.057233285 -0.15775459 -0.061561283 0.030287595
000190 0b 27 85 bc 94 e3 48 3c 9c 3c 34 bd 89 7f b1 bc
       -0.016253969 0.01226129 -0.044003114 -0.021667259
0001a0 7b a7 a9 3b 32 0e d3 3d ea de c2 3d 9d 83 51 bc
       0.005177436 0.10305442 0.09515174 -0.012787727
0001b0 18 29 87 3d 4a 51 fc 3d 85 82 02 be 00 33 16 bc
       0.06599635 0.12320192 -0.12745102 -0.009167433
0001c0 a4 2b 57 bc 0a b6 7c bb 63 e9 d9 3d e2 a7 0a 3e
       -0.013132963 -0.0038560652 0.10640218 0.13540605
0001d0 d0 b5 8e 3d 37 ad 3b 3e 92 1e 62 3c 50 49 40 bd
       0.06968272 0.18327795 0.013801234 -0.046944916
0001e0 00 f9 2b 3d b5 43 c5 bd 08 c5 64 bd 95 cd 43 bd
       0.04198551 -0.09632055 -0.055851966 -0.04780348
0001f0 c2 f3 1b 3e 43 f6 b5 bd 01 6a c3 bc 4d 0d b1 3c
       0.15229705 -0.08884861 -0.023854258 0.021612788
000200 b1 4e f4 bb f5 ae c5 3c d0 63 94 bc c5 23 d9 3d
       -0.00745567 0.024131278 -0.018114 0.106025256
000210 e8 53 b6 3b eb 6b 88 3d b3 5d 02 3d 10 c4 2e bc
       0.0055642016 0.06661209 0.03182764 -0.010666862
000220 56 e9 48 3e 25 9d ee bc 42 82 97 bb 83 52 0e 3d
       0.1962026 -0.029127667 -0.0046236822 0.034746658
000230 fe b9 3e bd db cd 26 3c 09 3b b2 bb d7 ec c6 3d
       -0.046564095 0.010180916 -0.0054391664 0.09713142
000240 62 b2 c2 3b 99 69 dc 3c 71 f3 10 bd cb cb b7 3c
       0.005941675 0.026905822 -0.035388414 0.022436043
000250 c1 5c ee 3d cb ab 0f bd b1 47 17 3d c6 16 dd 3c
       0.11638785 -0.035075944 0.036933605 0.026988398
000260 3c 2e 9f bd 0b 7b 00 bd d8 da bc bc 3a 38 03 bb
       -0.077724904 -0.031367343 -0.023053572 -0.0020022527
000270 66 ea c1 bd 2b 3b aa bc 6d 9d a3 bb 05 1f f4 3c
       -0.09468536 -0.020780167 -0.004993132 0.029799948
000280 a9 33 b6 bc f2 b4 a3 bd df dd 85 bd 31 d2 45 3e
       -0.02224143 -0.07993497 -0.06536459 0.19318463
000290 7b 32 96 bd ac fd 9f 3d d1 49 d1 3c 66 0a ab 3d
       -0.07333847 0.07812056 0.025547894 0.08351593
0002a0 16 9e a6 3d fe c8 a7 bb 0c a2 43 bd 35 7d 69 3c
       0.08135621 -0.0051203957 -0.04776196 0.014251043
0002b0 58 b4 ab bc 5f 9a 9c 3d 3d 3f 83 3d c7 11 bd 3d
       -0.020960018 0.076466314 0.06408546 0.092319064
0002c0 d8 27 eb 3c 76 2b 03 be c4 d3 86 bd 5b 7b d6 bd
       0.028705522 -0.12809548 -0.0658336 -0.10472747
0002d0 a2 42 3b 3e 9c 07 25 bd 04 2b b2 bc 6a 1a b1 3d
       0.18287137 -0.04029046 -0.021749027 0.08647616
0002e0 d6 29 92 bc 53 6a 9f bd 72 47 0c be 86 9b ce 3d
       -0.017842215 -0.077839516 -0.13699129 0.100882575
0002f0 48 90 ea bd 87 2f 05 bd c9 a6 e9 bb 9b 74 4d bc
       -0.11453301 -0.03251603 -0.007130478 -0.012540008
000300 9e e0 c3 bc aa 20 56 bc 87 31 32 bd b6 37 03 3f
       -0.023910817 -0.013069311 -0.043504264 0.51256883
000310 fc 81 41 3e 89 f4 f3 3d bc 78 0f 3d 54 fc d8 bc
       0.18897241 0.11911876 0.03502725 -0.026487507
000320 db ca 0e 3e ce f3 a1 3c 4f 5f 69 be 4e 31 02 bd
       0.1394457 0.019769575 -0.22790264 -0.031785302
000330 f0 39 a8 bd d4 fe 4e 3e 31 4a ae bc 06 9b 38 3d
       -0.08214176 0.20214397 -0.021275612 0.045069717
000340 34 b2 80 3d 37 da b2 3d e4 ab 27 3e d7 cc ad 3d
       0.062839895 0.087330274 0.16374165 0.08486336
000350 e2 eb 48 3e 95 55 1b bc a3 e0 be 3d d8 ca 5b bd
       0.19621232 -0.009480854 0.0932019 -0.053660244
000360 57 9c 29 3d 82 7f 2d 3e 1c 9e 80 be 32 6f 4c 3c
       0.041408863 0.16943172 -0.25120628 0.012477683
000370 aa 57 11 be 66 f8 b0 bd 81 61 53 3d 5d 3d 61 bc
       -0.14193597 -0.08641128 0.05160666 -0.01374754
000380 5e 0c 89 3d 04 e8 89 3d 2f 10 29 bd 92 c1 ae 3c
       0.06691812 0.067337066 -0.0412752 0.021332536
000390 38 d4 87 3b 6b d2 f4 bc 30 1e 69 bd 33 7b bf bc
       0.0041451715 -0.029885491 -0.056913555 -0.023374176
0003a0 23 c1 05 3e 39 6a d2 bd ec 42 7a bd e4 92 64 bd
       0.13061957 -0.102741666 -0.061098978 -0.05580415
0003b0 97 38 aa bc bc 5c 14 bd e7 1c 0a bd 34 96 16 3e
       -0.020778937 -0.03622125 -0.03371897 0.14705735
0003c0 a7 42 a9 3d d6 f9 72 bd 10 64 03 be 87 aa ff bb
       0.08264666 -0.059320293 -0.1283114 -0.007802311
0003d0 08 5c 4d 3e 99 88 b6 bc 4a b1 2a be 13 d6 86 3c
       0.20054638 -0.022281932 -0.16669193 0.0164595
0003e0 df f8 eb bc 93 f7 60 bd ca 7e 63 bd 1d 4e 0c 3d
       -0.028805194 -0.054923605 -0.055540837 0.034254182
0003f0 a0 c1 5d 3b af 1a 89 bd e4 7f 44 3d a6 d7 a8 bd
       0.0033837333 -0.066945426 0.04797353 -0.08244257

linear1.bias f4 [10]
000000 45 04 cc be 01 85 77 bf c7 40 42 be e5 07 5d be
       -0.39847007 -0.9668732 -0.18970023 -0.21585043
000010 2a 83 07 bf 35 48 17 bf 28 d7 d5 be 73 21 4b bf
       -0.52934515 -0.59094554 -0.41765714 -0.79347914
000020 57 05 c5 3d f3 b7 56 bf
       0.09620159 -0.83874434

linear2.weight f4 [6, 10]
000000 60 57 26 bf 42 2d 81 be f0 fa a5 be 70 21 87 be
       -0.64977074 -0.2522984 -0.32418013 -0.26392698
000010 9e fd 55 be 2d b8 46 be f7 82 3c be 49 c1 93 be
       -0.20897529 -0.19406195 -0.18409334 -0.28858402
000020 58 f1 b6 be e8 7d 0d 3e 57 a5 c7 3d da 93 ad bd
       -0.35731006 0.1381756 0.09748333 -0.08475466
000030 ca 47 8a bd bb 0f 8a 3e 49 fe 2a be 04 83 43 bd
       -0.06751974 0.26965126 -0.16698565 -0.047732368
000040 61 b2 86 3d 8f b8 59 3d 68 a6 fb 3a 5f 16 2b 3e
       0.06576992 0.053154524 0.0019199373 0.16707753
000050 e8 71 66 be 35 51 1f 3d d4 af 24 3e 60 fa 9d be
       -0.2250439 0.038895804 0.16082698 -0.30855083
000060 72 c7 f1 bd be 6f 42 be cf a5 47 3e 7d c7 33 3d
       -0.11805619 -0.18987939 0.19496845 0.04389142
000070 36 80 72 bd e4 76 d1 bc ac 2f 74 be e2 97 23 be
       -0.059204303 -0.025569387 -0.2384631 -0.15975907
000080 2e bf 90 bd 36 1d a0 3b 9c 59 7f bc b8 72 1a be
       -0.07067715 0.0048862947 -0.015585329 -0.15082824
000090 a6 ee 1e bd 79 89 de be e4 2f 0d 3b 0d 94 27 be
       -0.03880181 -0.43464258 0.0021543438 -0.1636507
0000a0 46 c3 50 be 2e b4 7d be 26 8e c5 bd c4 d3 44 be
       -0.20386991 -0.24775764 -0.09646253 -0.19221407
0000b0 5e c7 61 be c0 41 71 be a3 2f ed bb 31 4c b4 bd
       -0.22048709 -0.23560238 -0.0072383448 -0.08803595
0000c0 92 56 f9 bd 37 d8 01 bd f7 79 62 3e a5 23 35 3e
       -0.12174715 -0.03170034 0.22116838 0.17689379
0000d0 c5 14 48 bd f2 cc d2 bc 91 c4 b6 3e 4f 6c 80 3e
       -0.048847932 -0.025732491 0.35696843 0.25082633
0000e0 43 3a 14 be e6 32 36 be f9 5e 82 3e 19 91 45 be
       -0.1447535 -0.17792854 0.25463083 -0.19293632

linear2.bias f4 [6]
000000 7e 25 27 3e 2d f5 5d 3f 86 4b 3c 3f ed f0 94 bc
       0.16322896 0.86702234 0.7355274 -0.018181289
000010 31 95 02 bd 71 f5 0d 3f
       -0.03188056 0.5545264

linear3.weight f4 [1, 6]
000000 1c b0 28 be 8f 75 1f 3f be 4c d0 3e c4 c9 7b be
       -0.1647343 0.62288755 0.4068355 -0.24588686
000010 b3 65 26 bc 8d af d8 3e
       -0.010156083 0.42321435
